Traffic/traffic_agent.pth (torch, 41284 bytes, 6 tensors)

fc1.weight f4 [128, 8]
-0.1388905 -1.4649662 -0.027105413 0.08454128 0.060759656 -0.4319484 -0.9796021 -0.6351264
0.045248087 -0.30625758 0.27825305 -0.58746475 -0.89257234 0.65164673 -1.5795734 -0.10276283
0.26147708 -0.2305838 -0.42150003 -1.0931547 -0.40752196 -1.0468417 -1.4547317 0.50594485
-0.021488328 0.025775142 -0.49430415 -1.1033531 -0.25028667 -0.06658583 -1.2392687 -0.36692163
0.25963718 -0.30417222 -0.30586785 0.054276656 1.9630246 0.1631142 1.1515296 -1.6702232
-0.40843236 -0.25731593 -0.7024538 0.13042861 -0.09531223 1.7568417 -0.24469705 1.323642
-0.13580479 -0.35119018 0.05449175 -0.6202565 -0.33784285 -0.4577979 0.21552145 -0.44949517
0.11768371 0.023679152 -0.017654432 -0.267346 0.57359666 -0.6482209 0.12244639 -1.3283095
0.008525116 -0.13015805 -0.06755493 0.00574501 -1.2146047 -0.0540727 -0.6151421 0.022807112
0.20931552 -0.9184271 -0.9518772 0.25278708 -1.9300519 -0.327023 1.0019294 -0.66017187
-0.13986799 0.37996224 0.23198912 -0.75650805 0.045571186 -0.8661876 -0.14085779 0.5136229
0.27976316 -0.29712558 0.24181752 -0.55920416 -0.021491395 -0.32401443 0.06600735 0.15919252
0.43126953 0.1212159 -0.019939136 -0.40610504 0.08379033 -0.6447687 -1.2844945 -1.0528395
-0.27871937 -0.18020277 -0.13787882 -0.041237056 0.3394995 -0.227686 0.120180756 -0.20885399
-0.025216714 -0.096905164 -0.006289015 -0.06688531 0.28838405 -0.3281412 -0.6942925 -0.70103514
-0.306237 0.18077114 0.19813988 0.17463528 0.22689489 -0.22774786 1.5404421 -0.29987186
-0.04579199 0.102845155 0.23720011 0.27723745 -0.16321391 -0.2751131 -0.60399264 -0.40259615
-0.087600715 -0.02785277 -0.058586184 0.37403688 1.0643259 1.5202378 -0.5906443 -0.3807783
0.1626979 -0.70497966 0.09101566 0.34696436 1.0947648 -0.67412084 -0.1397366 -0.19805172
0.25003844 -0.47109917 0.0038690593 -0.5000352 -1.9969862 0.52153224 -1.4906855 -0.059929397
-0.18577018 -0.06205117 0.119309716 -0.02305967 -0.31166476 0.028564567 -0.041352205 1.3787197
-0.59599864 0.19209825 0.39639607 -0.17435092 -0.25762457 0.8246381 0.4315299 0.2623733
0.18354803 0.058524624 -0.5924752 -0.11480997 -0.32434604 0.99702865 -0.587387 0.6477542
0.061448645 -0.273331 -0.6352267 -0.28284857 -0.06426758 -0.0041333935 -0.44147807 0.63458526
-0.07736401 -0.0635309 0.21546951 0.32614407 -0.59969085 -0.43657 -0.601333 -0.6424161
0.32475606 0.32598287 -0.031031573 -0.29674286 -0.96868587 -0.35286403 -0.48462108 0.17541273
-0.0019742013 0.04289512 -0.03704129 -0.035183057 -1.0204358 -0.042064037 -0.29663604 -0.1545335
-0.2459365 0.07454172 0.3038637 -0.017186267 -0.63324684 -0.60251063 -0.5816487 -0.8488611
0.20785318 -0.28216955 -0.120656565 -0.07899329 -0.4711836 0.39239237 -0.2164454 2.2851362
0.5096893 -0.07726966 -0.42282018 0.040182617 -0.569117 -1.1164069 -0.026392894 -1.0296066
-0.16849266 -0.39888945 0.20575845 0.036647595 0.33997416 -1.4505115 0.5617945 0.9144761
0.0102568865 -0.2018516 0.27355632 -0.47651008 -0.21576086 -0.6138343 -0.09902955 -0.6547109
00000000: 5039 0ebe 0384 bbbf 2c0c debc fb23 ad3d
00000010: 1edf 783d 5728 ddbe 34c7 7abf a597 22bf
00000020: 0f56 393d cbcd 9cbe 2f77 8e3e 1764 16bf
00000030: 9f7f 64bf 52d2 263f 762f cabf 5275 d2bd
00000040: 53e0 853e 291e 6cbe dace d7be 7eec 8bbf
00000050: b8a6 d0be e9fe 85bf a634 babf 9a85 013f
00000060: 4a08 b0bc 6426 d33c 6f15 fdbe ad3a 8dbf
00000070: 9325 80be 275e 88bd 5ba0 9ebf 27dd bbbe
00000080: 2aef 843e 76bc 9bbe b69a 9cbe 3351 5e3d
00000090: 6444 fb3f 6907 273e 5265 933f e0c9 d5bf
000000a0: 0c1e d1be eabe 83be 03d4 33bf 148f 053e
000000b0: 0f33 c3bd 30e0 e03f dd91 7abe 1a6d a93f
000000c0: 6910 0bbe 33cf b3be be32 5f3d 21c9 1ebf
000000d0: bdf9 acbe 7d64 eabe a8b1 5c3e 3b24 e6be
000000e0: 2804 f13d c8fa c13c 07a0 90bc 93e1 88be
000000f0: 3bd7 123f cef1 25bf 2cc5 fa3d 0c06 aabf
00000100: eeac 0b3c 2748 05be 3d5a 8abd a340 bc3b
00000110: 2b78 9bbf 567b 5dbd f479 1dbf fbd5 ba3c
00000120: cf56 563e 0a1e 6bbf 39ae 73bf 4f6d 813e
00000130: f10b f7bf 8f6f a7be 393f 803f 0601 29bf
00000140: 8e39 0fbe 698a c23e 8e8e 6d3e 83aa 41bf
00000150: daa8 3a3d 78be 5dbf 063d 10be ca7c 033f
00000160: 1e3d 8f3e d820 98be 039f 773e 0128 0fbf
00000170: b90e b0bc 38e5 a5be dd2e 873d 5d03 233e
00000180: 5ccf dc3e 0b40 f83d 6657 a3bc 00ed cfbe
00000190: 449a ab3d 900f 25bf 516a a4bf 72c3 86bf
000001a0: 4eb4 8ebe 1387 38be 1b30 0dbe 30e8 28bd
000001b0: e1d2 ad3e 8526 69be 5421 f63d d2dd 55be
000001c0: 4893 cebc 3776 c6bd 1514 cebb 2afb 88bd
000001d0: 13a7 933e 2002 a8be 27bd 31bf 0a77 33bf
000001e0: 19cb 9cbe 121c 393e 2ee5 4a3e 97d3 323e
000001f0: 2257 683e bc36 69be 352d c53f ce88 99be
00000200: 6290 3bbd 7ba0 d23d 96e4 723e 11f2 8d3e
00000210: 8c21 27be a0db 8cbe 439f 1abf 1521 cebe
00000220: 0168 b3bd 7e2b e4bc 11f8 6fbd c381 bf3e
00000230: d53b 883f 2797 c23f 7734 17bf 60f5 c2be
00000240: 479a 263e 8c79 34bf 6b66 ba3d 50a5 b13e
00000250: 4121 8c3f 2f93 2cbf 1c17 0fbe 12ce 4abe
00000260: 0a05 803e e933 f1be 0b90 7d3b 4f02 00bf
00000270: 3e9d ffbf 2383 053f c8ce bebf 8778 75bd
00000280: 8a3a 3ebe 5e29 7ebd a758 f43d a2e7 bcbc
00000290: 8692 9fbe 3d00 ea3c ee60 29bd e379 b03f
000002a0: 5e93 18bf 67b5 443e 6df4 ca3e 0c89 32be
000002b0: 5ee7 83be 7c1b 533f 7df1 dc3e cb55 863e
000002c0: 04f4 3b3e 84b7 6f3d 74ac 17bf 7d21 ebbd
000002d0: af10 a6be 453d 7f3f ff5e 16bf 38d3 253f
000002e0: 93b1 7b3d 0af2 8bbe 389e 22bf 87d1 90be
000002f0: b99e 83bd 6b71 87bb 6a09 e2be 2e74 223f
00000300: 0671 9ebd 7d1c 82bd 0aa4 5c3e 5bfc a63e
00000310: 5785 19bf 1a86 dfbe f6f0 19bf 6275 24bf
00000320: 6d46 a63e 3ae7 a63e ed35 febc aeee 97be
00000330: ccfb 77bf 98aa b4be 4120 f8be 659f 333e
00000340: 9a61 01bb cbb2 2f3d 9cb8 17bd 1c1c 10bd
00000350: a49d 82bf 574b 2cbd aee0 97be 083e 1ebe
00000360: c7d6 7bbe 54a9 983d 0694 9b3e 37ca 8cbc
00000370: 771c 22bf 233e 1abf eee6 14bf f64e 59bf
00000380: 77d7 543e 8778 90be ca1a f7bd 3cc7 a1bd
00000390: fa3e f1be a7e7 c83e dda3 5dbe ac3f 1240
000003a0: ff7a 023f 8e3f 9ebd e37b d8be 8796 243d
000003b0: a7b1 11bf 6ce6 8ebf e935 d8bc 26ca 83bf
000003c0: 5789 2cbe 3d3b ccbe 58b2 523e ca1b 163d
000003d0: 1811 ae3e 5caa b9bf c4d1 0f3f 1b1b 6a3f
000003e0: 800c 283c 30b2 4ebe 930f 8c3e 21f9 f3be
000003f0: 6af0 5cbe 3f24 1dbf 01d0 cabd 229b 27bf

fc1.bias f4 [128]
-1.4509628 -1.1845102 -0.8377687 -0.8892188 -0.14181677 -0.58177686 -0.5867825 -1.5831866
-1.165029 -0.15334642 -1.4329444 -0.9646442 0.8254963 -0.28682756 -0.79407007 -0.6440067
-1.1230426 1.8090827 -0.8808721 -1.3686295 2.84005 0.6154551 -0.9041554 -0.6548416
-1.1325405 -0.615439 -1.5120872 -1.1130431 0.17055748 0.06813455 -1.032015 -1.177497
-0.6642668 -1.767239 0.10725743 -1.7723415 0.16820234 -0.7765863 0.80060345 2.7681816
0.16584119 -0.8704778 -1.0723491 -1.7434868 0.23549607 2.697055 -0.6628847 -1.2935163
-0.8466339 0.7657536 0.278946 -0.023857879 0.13685893 0.22570086 0.08040056 -1.7519593
0.081517585 -0.40430355 -1.0501677 1.8637438 -1.3859009 0.5389091 -1.3155899 -1.243906
-0.7784686 -1.574726 -1.0999966 -0.3798941 -1.5096829 -0.9817617 2.4568913 0.040491223
-0.34830424 -0.47987342 0.21461591 -0.95664287 -1.1793789 -1.301228 -1.6572433 -0.4086984
-0.050460488 -0.1335596 -0.14401643 -1.2167214 0.48166478 -1.2611436 -1.1682012 0.22897926
-1.0918543 -1.9253517 0.16968995 2.9164174 -0.82875353 -0.22029078 -0.79429835 -0.31912586
0.17073672 -1.0819722 -0.10226107 -0.037917275 -1.0583848 -0.88671815 -0.052867137 0.418685
-0.7845133 -1.85311 0.076405115 -0.57341486 -1.2638752 0.4005732 -0.14754295 -1.5489453
-0.37670946 -0.31493422 -1.4769864 0.4084518 -0.04685707 -1.3887284 -0.5429763 -0.42151594
0.37553194 -0.97752434 -0.69152015 0.20510134 -1.3354899 -1.5639039 -0.97718894 -1.7192396
00000000: 26b9 b9bf 089e 97bf 0278 56bf d8a3 63bf
00000010: 6a38 11be 54ef 14bf 6137 16bf dca5 cabf
00000020: ac1f 95bf d806 1dbe b96a b7bf ecf2 76bf
00000030: ba53 533f 10db 92be 2d48 4bbf a0dd 24bf
00000040: dcbf 8fbf 0690 e73f d580 61bf 402f afbf
00000050: 61c3 3540 778e 1d3f ba76 67bf b3a3 27bf
00000060: 16f7 90bf 698d 1dbf 138c c1bf 3278 8ebf
00000070: 9fa6 2e3e 208a 8b3d 1119 84bf 39b8 96bf
00000080: 640d 2abf e334 e2bf c9a9 db3d 16dc e2bf
00000090: 3c3d 2c3e 5cce 46bf 59f4 4c3f e329 3140
000000a0: 46d2 293e a2d7 5ebf bc42 89bf 932a dfbf
000000b0: e225 713e 8d9c 2c40 d0b2 29bf f191 a5bf
000000c0: 00bd 58bf 6e08 443f 03d2 8e3e 9971 c3bc
000000d0: bf24 0c3e 201e 673e 0ca9 a43d 3440 e0bf
000000e0: b1f2 a63d e000 cfbe e56b 86bf 288f ee3f
000000f0: 3365 b1bf f2f5 093f 4065 a8bf 5038 9fbf
00000100: b849 47bf 9f90 c9bf b0cc 8cbf 7b81 c2be
00000110: 4a3d c1bf bc54 7bbf b53d 1d40 20da 253d
00000120: ef54 b2be f8b1 f5be 46c4 5b3e 8ce6 74bf
00000130: e3f5 96bf a48e a6bf 8c20 d4bf eb40 d1be
00000140: a8af 4ebd d9c3 08be 0b79 13be 87bd 9bbf
00000150: c49c f63e 276d a1bf 9e87 95bf 8a79 6a3e
00000160: e2c1 8bbf ed71 f6bf 34c3 2d3e 95a6 3a40
00000170: 3129 54bf e893 61be 2357 4bbf 7764 a3be
00000180: 9bd5 2e3e 117e 8abf 406e d1bd 254f 1bbd
00000190: 2779 87bf f6ff 62bf 368b 58bd e15d d63e
000001a0: ddd5 48bf b532 edbf 497a 9c3d 51cb 12bf
000001b0: aac6 a1bf ee17 cd3e 8015 17be d743 c6bf
000001c0: 10e0 c0be 0f3f a1be e40d bdbf 9820 d13e
000001d0: 33ed 3fbd dac1 b1bf 7f00 0bbf f0d0 d7be
000001e0: b945 c03e 093f 7abf 7707 31bf 1606 523e
000001f0: 55f1 aabf 012e c8bf 0e29 7abf 0b10 dcbf

fc2.weight f4 [64, 128]
-0.09652816 -0.05547169 -0.040437516 -0.06908512 -0.038031798 0.053025506 -0.10545234 0.005121804
-0.11223645 -0.059930526 0.023392294 -0.061839085 0.03887456 -0.059442483 0.00012650492 -0.059324406
-0.03361018 0.035147477 -0.07144108 -0.124688886 -0.100475006 -0.04337457 0.014173551 -0.10227771
0.009070796 -0.032478433 0.026224572 -0.091525234 -0.010309019 0.031036116 -0.0687016 0.0030712762
-0.005542419 -0.05114535 -0.0045209453 -0.031737193 0.05542647 -0.08066744 -0.021861978 -0.12902352
-0.077914156 0.047176305 -0.028291376 -0.06540446 -0.069931515 -0.09737597 -0.0633155 0.0611186
-0.029813416 0.010265276 -0.000990047 -0.081562735 0.01152911 -0.015396574 0.05590274 0.044745248
0.026197448 -0.042114347 -0.008096434 0.010726605 -0.075561784 -0.04744364 -0.068550035 0.045549627
-0.10774305 -0.04940104 -0.118494965 0.042310335 -0.10034501 0.028266992 -0.049765334 0.054138936
-0.0022409905 -0.049706005 0.0046532303 -0.06534669 0.019820895 -0.017685318 -0.057718992 0.012594885
-0.03957823 -0.059529524 0.025876112 0.03253459 -0.03826928 -0.009640149 0.053853005 0.019637883
-0.07686171 -0.08644276 -0.0047356114 -0.09452642 -0.03960522 0.024518728 -0.024976857 0.042136483
-0.08441668 -0.020068452 0.0787762 0.011615366 -0.031894937 0.0063087465 0.07091632 0.05885002
-0.003835131 0.065759115 -0.0023041144 0.0139095485 -0.013724887 0.057597794 -0.024899064 0.017953351
-0.060022067 0.032266848 -0.08245935 -0.064577796 -0.023423547 0.013573192 -0.016889513 0.045456063
-0.06735099 0.038846135 -0.051828694 0.034143813 -0.03860644 -0.052422956 0.02865755 -0.083487205
-0.033867884 0.090650685 -0.060873643 0.0023317204 -0.14014058 -0.014329664 0.035057116 -0.04828452
0.046597127 -0.17690517 0.028829303 -0.054271866 -0.016539114 -0.053740013 0.022038102 -0.06447316
-0.07240446 -0.17254561 0.046471387 0.012022522 0.054204427 -0.12844895 -0.08482041 -0.03585049
-0.12584251 0.0007536978 0.014598431 0.052445207 0.018814748 0.013600132 -0.08617832 0.0404945
-0.0005674629 0.046935756 -0.08025801 0.04284877 0.07334653 -0.021550525 0.06482127 -0.10784702
-0.027471546 -0.027151741 -0.18638372 -0.052129537 0.030036733 -0.08631757 -0.10293854 0.026516585
-0.07473559 -0.060665913 -0.011920703 0.028373756 -0.07304073 0.009555117 -0.03693125 -0.039909903
-0.024426498 -0.11740484 -0.07385192 0.103223264 -0.123852104 0.030887999 0.012019004 0.012812973
-0.092295334 0.005793676 0.055382073 -0.037018567 0.04405301 0.018574882 -0.047807064 -0.0021597072
-0.053309083 -0.041377254 0.04718723 -0.015975177 -0.0706223 -0.10341981 -0.006233029 0.022622235
-0.040465232 -0.02632334 -0.027287215 0.09049452 -0.037060965 -0.028994022 -0.030451303 -0.087949604
-0.014694912 -0.10411353 -0.047545023 -0.0363871 0.02454885 -0.019042794 -0.06407843 -0.03388105
-0.07195214 -0.056778412 0.027668163 -0.06417086 -0.039425347 -0.08077893 -0.12506336 0.0908252
-0.16639188 -0.0071843616 -0.074644856 -0.092145346 -0.05531165 0.06778793 -0.07596944 -0.08598985
-0.07711947 -0.12908739 -0.10086344 -0.091933005 -0.10268266 0.008351732 -0.1628037 -0.09589425
-0.15182675 -0.0733049 -0.025676709 0.009228878 0.060140945 0.052737817 0.0127996085 -0.08156632
00000000: 8eb0 c5bd 4836 63bd cfa1 25bd 807c 8dbd
00000010: 3bc7 1bbd 4631 593d 65f7 d7bd ced4 a73b
00000020: 39dc e5bd b679 75bd 32a1 bf3c fb4a 7dbd
00000030: ee3a 1f3d f679 73bd 68a6 0439 26fe 72bd
00000040: d4aa 09bd cdf6 0f3d b34f 92bd e35c ffbd
00000050: d7c5 cdbd 88a9 31bd 2f38 683c fa76 d1bd
00000060: ad9d 143c 1b08 05bd ead4 d63c 9571 bbbd
00000070: 29e7 28bc 743f fe3c 6db3 8cbd 7747 493b
00000080: 2e9d b5bb c97d 51bd 7024 94bb dcfe 01bd
00000090: de06 633d f934 a5bd e417 b3bc be1e 04be
000000a0: 7591 9fbd f13b 413d 51c3 e7bc c6f2 85bd
000000b0: 4138 8fbd 0d6d c7bd 8fab 81bd 7f57 7a3d
000000c0: 443b f4bc b02f 283c 77c4 81ba 5d0a a7bd
000000d0: 98e4 3c3c e941 7cbc 46fa 643d cb46 373d
000000e0: 089c d63c 1880 2cbd e8a6 04bc a4be 2f3c
000000f0: 23c0 9abd 4354 42bd f663 8cbd 3f92 3a3d
00000100: 63a8 dcbd bf58 4abd 7dad f2bd 9a4d 2d3d
00000110: af81 cdbd 2e90 e73c bcd6 4bbd cac0 5d3d
00000120: 95dd 12bb 8698 4bbd 207a 983b 7cd4 85bd
00000130: 6e5f a23c cde0 90bc c06a 6cbd c75a 4e3c
00000140: c81c 22bd 3bd5 73bd 24fa d33c fe42 053d
00000150: 40c0 1cbd b7f1 1dbc f894 5c3d a0df a03c
00000160: ac69 9dbd e708 b1bd 302d 9bbb 1197 c1bd
00000170: 1539 22bd 80db c83c 449c ccbc 4e97 2c3d
00000180: a7e2 acbd 9866 a4bc 6b55 a13d 604e 3e3c
00000190: 44a4 02bd 9ab9 ce3b 933c 913d b80c 713d
000001a0: d256 7bbb b7ac 863d a000 17bb e0e4 633c
000001b0: 59de 60bc aaeb 6b3d 1ff9 cbbc e812 933c
000001c0: b3d9 75bd 3e2a 043d 73e0 a8bd 5d41 84bd
000001d0: bde2 bfbc 1862 5e3c e05b 8abc 2330 3a3d
000001e0: 51ef 89bd 201d 1f3d 534a 54bd 62da 0b3d
000001f0: c921 1ebd 74b9 56bd 3dc3 ea3c 57fb aabd
00000200: 0db9 0abd 11a7 b93d a456 79bd c7cf 183b
00000210: 0381 0fbe f8c6 6abc 0d98 0f3d fdc5 45bd
00000220: a1dc 3e3d a126 35be 6e2b ec3c 2d4c 5ebd
00000230: 097d 87bc 7d1e 5cbd 4089 b43c 810a 84bd
00000240: ca48 94bd ccaf 30be c858 3e3d 1dfa 443c
00000250: 7605 5e3d 1f88 03be 53b6 adbd f7d7 12bd
00000260: dcdc 00be ce93 453a 422e 6f3c c9d0 563d
00000270: 6321 9a3c 17d3 5e3c 427e b0bd 90dd 253d
00000280: cac1 14ba b53f 403d 505e a4bd 3182 2f3d
00000290: b536 963d ba8a b0bc 04c1 843d e6de dcbd
000002a0: 020c e1bc 546d debc 60db 3ebe c885 55bd
000002b0: 980f f63c 44c7 b0bd 71d1 d2bd 4f39 d93c
000002c0: f90e 99bd d27c 78bd 0d4f 43bc 1470 e83c
000002d0: 6196 95bd 118d 1c3c 3945 17bd 9178 23bd
000002e0: 141a c8bc f371 f0bd ad3f 97bd b866 d33d
000002f0: 2ca6 fdbd d408 fd3c 5beb 443c 81ed 513c
00000300: 5605 bdbd e0d8 bd3b 50d8 623d c8a0 17bd
00000310: ee70 343d 5a2a 983c 57d1 43bd e089 0dbb
00000320: a05a 5abd 327b 29bd 6647 413d 60de 82bc
00000330: 6da2 90bd c4cd d3bd 703e ccbb 4452 b93c
00000340: dfbe 25bd 0ca4 d7bc 7089 dfbc 3155 b93d
00000350: 3dcd 17bd df84 edbc 0375 f9bc ec1e b4bd
00000360: eec2 70bc 7939 d5bd 92be 42bd a40a 15bd
00000370: ab1a c93c a2ff 9bbc 8d3b 83bd dbc6 0abd
00000380: a55b 93bd 7b90 68bd 58a8 e23c 036c 83bd
00000390: 797c 21bd 6c6f a5bd 9c10 00be 9002 ba3d
000003a0: a262 2abe cb6a ebbb 67df 98bd b3b6 bcbd
000003b0: 788e 62bd 66d4 8a3d de95 9bbd 721b b0bd
000003c0: d0f0 9dbd 7c2f 04be 7e91 cebd 5f47 bcbd
000003d0: 494b d2bd b4d5 083c 03b6 26be 3464 c4bd
000003e0: 7978 1bbe e120 96bd f657 d2bc b834 173c
000003f0: 5a56 763d 9c03 583d 73b5 513c 3e0c a7bd

fc2.bias f4 [64]
0.027251564 -0.13041204 -0.7581258 -0.27707404 -0.5471912 -0.9997527 -0.38684475 -0.5691696
-0.11837588 -0.31613705 -0.21183108 -1.103301 0.0147213135 -0.4883914 -0.0375298 -0.119627155
1.4456139 -0.9161756 -0.02764029 -0.31220388 0.025120644 -0.016209355 -1.1278331 -0.5741128
0.6022579 -0.34723905 -0.1969126 -0.15655297 -0.074537605 -0.14370374 -0.012848326 -0.22621359
0.6944023 -0.05274951 -0.03092123 0.070986755 2.0491114 -0.019716589 -0.017328754 -0.124550365
0.06374664 0.05820999 -0.07775642 0.6816271 -0.17349264 -0.04721094 -1.3055962 -0.4026714
-0.14572081 -0.010087007 -0.044576388 -1.0505198 0.01952183 -0.5893331 -0.86622787 0.0008104362
-0.09721812 -0.75025463 -0.5725114 -0.038690653 -0.034844473 2.2460926 -1.3907818 -0.14589822
00000000: ac3e df3c bc8a 05be 8814 42bf a6dc 8dbe
00000010: b914 0cbf cbef 7fbf 8410 c6be 19b5 11bf
00000020: 0e6f f2bd b7dc a1be 3fea 58be f838 8dbf
00000030: aa31 713c 700e fabe d9b8 19bd 15ff f4bd
00000040: e009 b93f 7c8a 6abf e46d e2bc 30d9 9fbe
00000050: cfc9 cd3c 7bc9 84bc d65c 90bf 0ef9 12bf
00000060: 932d 1a3f 51c9 b1be 75a3 49be 6c4f 20be
00000070: 2ca7 98bd 1327 13be c981 52bc 89a4 67be
00000080: 59c4 313f df0f 58bd 854e fdbc 8161 913d
00000090: a424 0340 af84 a1bc 08f5 8dbc 4314 ffbd
000000a0: 998d 823d 996d 6e3d c23e 9fbd 1d7f 2e3f
000000b0: 0ea8 31be 4260 41bd c71d a7bf f22a cebe
000000c0: d637 15be f943 25bc bb95 36bd 6f77 86bf
000000d0: 3fec 9f3c 89de 16bf 1cc1 5dbf 7473 543a
000000e0: 4b1a c7bd b010 40bf 1b90 12bf 177a 1ebd
000000f0: 14b9 0ebd fbbf 0f40 2305 b2bf 5866 15be

fc3.weight f4 [4, 64]
-0.08916127 0.05499879 -0.25287387 0.026808383 0.06017426 0.18787135 0.046005685 0.49404418
0.09153791 0.09374636 0.13331215 0.4192622 -0.08220719 0.25202537 -0.0829671 -0.034652393
0.87575024 -0.18093643 0.17318901 0.15609778 0.0064609298 -0.111626565 0.033584014 0.10901024
0.6980494 -0.01706523 0.16832192 0.38852546 -0.052742112 -0.06393334 0.04096732 0.04279614
0.5488104 0.094994284 0.009545813 -0.37048844 0.35016677 0.23960678 -0.120806456 -0.071325235
-0.09237692 -0.06892958 0.05468227 -0.14451237 0.09489384 0.24343827 -0.0020146994 0.034197565
-0.11900139 -0.0038297996 -0.057433046 0.6532951 0.061471246 -0.09438748 0.47577286 -0.05188615
-0.03550023 -0.01932007 0.2775809 -0.059781022 -0.00806132 0.8580305 1.1621748 0.3747553
0.058077432 -0.11705985 0.10000583 0.32859474 0.29871783 0.30854043 -0.017562544 -0.34767538
0.10122622 0.10809846 0.22052374 -0.27840817 -0.11218519 0.009201493 -0.10525495 -0.048685253
0.74242723 -0.01741824 0.26710242 0.03956777 -0.08157079 -0.063480005 0.16898479 0.20248657
0.40053955 0.0733736 0.12586077 0.28349468 0.041420937 -0.07210467 0.05173647 -0.35745853
0.6276495 0.12716855 0.014161219 -0.13159655 -0.08109821 0.13383505 -0.051428538 -0.06684621
-0.09065667 -0.023190036 0.086894795 0.46238163 0.07866026 0.24798971 0.25049043 0.12906633
0.058181755 0.043438602 0.06317253 0.77210206 -0.2611764 0.11793632 0.43596163 -0.08710249
-0.022817895 0.5707884 0.08687843 -0.113225825 0.057373296 0.8528412 0.48842368 0.35253862
-0.050767392 0.012880352 0.13940245 0.153731 -0.13496408 0.44310898 0.17569269 0.8038368
0.114203334 -0.057029966 0.119966395 0.020345327 -0.06112703 0.041495066 -0.0774017 0.061399966
0.6008496 0.20685731 0.22090128 0.38435587 -0.01077627 -0.13177304 -0.47405118 0.1653677
0.14318894 0.254678 0.22844905 0.2097644 0.08413745 0.010029007 -0.05337562 0.5101835
0.3807521 0.16237965 -0.08179547 0.58759254 0.72712934 0.20598386 0.09671654 0.007953752
-0.0020570308 0.11320722 0.0015588999 0.11895825 0.03820369 0.27172133 0.972499 0.02664101
0.33765423 -0.011055227 0.09805295 -0.05533118 -0.051606752 0.42477283 -0.27400282 -0.035014097
0.042934973 -0.17861435 -0.017958038 -0.058725234 0.106763214 0.94646865 0.2951776 0.10395089
-0.031734586 -0.019256003 0.45030335 0.60707706 0.27705646 0.19612746 0.17070618 0.23535371
0.031418618 0.12526408 0.21765338 0.515252 -0.041940525 0.012255325 -0.10100891 -0.0953626
0.536834 0.54519945 0.2433391 0.5641539 0.009934988 0.018887116 0.41389844 0.1414187
0.26755542 0.09774961 0.20501058 -0.11049924 -0.07588795 6.624373e-05 0.014716027 0.13177836
0.40930128 0.03676145 -0.09993411 0.038520366 -0.093620725 0.26335087 0.088011354 0.044374
0.10484375 -0.022380844 0.008556008 -0.014612983 -0.0020604392 0.1827515 0.34609112 0.03270661
-0.29502735 -0.082197905 -0.059872642 0.36567515 -0.007282601 0.13842933 -0.07313518 0.07053145
-0.059060946 0.35034248 0.42229286 0.019229202 -0.02230145 1.3490342 -0.1548517 -0.25609118
00000000: 2f9a b6bd 6946 613d af78 81be 419d db3c
00000010: 4979 763d 5961 403e 7570 3c3d 5cf3 fc3e
00000020: 3a78 bb3d 17fe bf3d fb82 083e 89a9 d63e
00000030: 3e5c a8bd 7809 813e a8ea a9bd abef 0dbd
00000040: 2b31 603f 6647 39be 7658 313e 19d8 1f3e
00000050: 35b6 d33b 789c e4bd 648f 093d c340 df3d
00000060: 5eb3 323f 62cc 8bbc 955c 2c3e cfec c63e
00000070: 1d08 58bd 7cef 82bd 59cd 273d 014b 2f3d
00000080: d77e 0c3f 5d8c c23d 0b66 1c3c a9b0 bdbe
00000090: 0f49 b33e 7b5b 753e 6069 f7bd f712 92bd
000000a0: 1c30 bdbd f42a 8dbd 84fa 5f3d 0dfb 13be
000000b0: b457 c23d e247 793e 0c09 04bb bf12 0c3d
000000c0: 00b7 f3bd 60fd 7abb ea3e 6bbd 593e 273f
000000d0: 46c9 7b3d 394e c1bd 8098 f33e 9286 54bd
000000e0: b068 11bd 2045 9ebc 151f 8e3e f2dc 74bd
000000f0: a013 04bc e3a7 5b3f 25c2 943f eddf bf3e
00000100: 9ae2 6d3d 13bd efbd dbcf cc3d 923d a83e
00000110: 8bf1 983e 03f9 9d3e 53df 8fbc 8202 b2be
00000120: b14f cf3d ba62 dd3d fad0 613e 848b 8ebe
00000130: 59c1 e5bd dcc1 163c e88f d7bd 306a 47bd
00000140: b60f 3e3f b2b0 8ebc a6c1 883e d011 223d
00000150: 960e a7bd ce01 82bd 590a 2d3e a458 4f3e
00000160: 8513 cd3e e644 963d a5e1 003e 3726 913e
00000170: 00a9 293d 9dab 93bd 9fe9 533d ce04 b7be
00000180: a3ad 203f 7938 023e 7504 683c 3fc1 06be
00000190: d116 a6bd 0e0c 093e bba6 52bd aae6 88bd
000001a0: 34aa b9bd 08f9 bdbc e6f5 b13d 49bd ec3e
000001b0: a118 a13d 04f1 7d3e 4840 803e f729 043e
000001c0: fe4f 6e3d adec 313d 9960 813d 7ba8 453f
000001d0: eab8 85be 9988 f13d 5d36 df3e ca62 b2bd
000001e0: 98ec babc 301f 123f 51ed b13d f1e2 e7bd
000001f0: 4300 6b3d cd53 5a3f ab12 fa3e f17f b43e
00000200: 78f1 4fbd 1d08 533c 84bf 0e3e a96b 1d3e
00000210: 0634 0abe 2edf e23e c9e8 333e 40c8 4d3f
00000220: 70e3 e93d 4198 69bd f1b0 f53d 3eab a63c
00000230: 5660 7abd bbf6 293d c884 9ebd 887e 7b3d
00000240: 48d1 193f 67d2 533e f233 623e 4bca c43e
00000250: f48e 30bc 83ef 06be d6b6 f2be 2656 293e
00000260: 1fa0 123e 2865 823e 8cee 693e 7bcc 563e
00000270: 4150 ac3d b450 243c 65a0 5abd 639b 023f
00000280: f0f1 c23e da46 263e 6284 a7bd 776c 163f
00000290: 2625 3a3f 6fed 523e 5213 c63d 7450 023c
000002a0: 40cf 06bb 30d9 e73d 0054 cc3a 62a0 f33d
000002b0: 797b 1c3d 0f1f 8b3e b2f5 783f 3f3e da3c
000002c0: 04e1 ac3e fc20 35bc fccf c83d f3a2 62bd
000002d0: 9a61 53bd d37b d93e 194a 8cbe f16a 0fbd
000002e0: 95dc 2f3d aee6 36be bc1c 93bc df89 70bd
000002f0: aca6 da3d c54b 723f 8521 973e 34e4 d43d
00000300: 20fc 01bd c4be 9dbc 298e e63e 6769 1b3f
00000310: 58da 8d3e a3d5 483e 9acd 2e3e 9000 713e
00000320: cfb0 003d 3a45 003e 87e0 5e3e 8ee7 033f
00000330: d4c9 2bbd 8fca 483c c2dd cebd 784d c3bd
00000340: f46d 093f 3192 0b3f e32d 793e 646c 103f
00000350: 5cc6 223c 27b9 9a3c 7fea d33e 10d0 103e
00000360: 06fd 883e f330 c83d 4bee 513e 6d4d e2bd
00000370: 246b 9bbd 55ec 8a38 7e1b 713c e8f0 063e
00000380: f08f d13e 2d93 163d 41aa ccbd 88c7 1d3d
00000390: 39bc bfbd edd5 863e 4c3f b43d 83c1 353d
000003a0: 52b8 d63d 0858 b7bc 802e 0c3c 4b6b 6fbc
000003b0: 6f08 07bb 3623 3b3e db32 b13e 5ef7 053d
000003c0: d30d 97be 6057 a8bd 043d 75bd c639 bb3e
000003d0: e3a2 eebb 6bc0 0d3e e6c7 95bd cb72 903d
000003e0: e4e9 71bd 1760 b33e c536 d83e 8f86 9d3c
000003f0: 88b1 b6bc 27ad ac3f 7291 1ebe 621e 83be

fc3.bias f4 [4]
0.3173388 0.21530187 0.2929821 -0.25786427
00000000: 3b7a a23e 1878 5c3e c001 963e c906 84be
